…
se_uri":"https://localhost:8080/"},"id":"2HAOrJ4Y0oNO","executionInfo":{"status":"ok","timestamp":1684672736195,"user_tz":-540,"elapsed":547,"user":{"displayName":"신성한","userId":"02352508022902564974"}},"outputId":"610c8386-431f-4569-ec26-e2513a211085"},"execution_count":11,"outputs":[{"output_type":"stream","name":"stdout","text":["Model: \"sequential\"\n","_________________________________________________________________\n"," Layer (type)                Output Shape              Param #   \n","=================================================================\n"," vgg16 (Functional)          (None, 2, 2, 512)         14714688  \n","                                                                 \n"," dropout (Dropout)           (None, 2, 2, 512)         0         \n","                                                                 \n"," conv2d (Conv2D)             (None, 2, 2, 512)         2359808   \n","                                                                 \n"," batch_normalization (BatchN  (None, 2, 2, 512)        2048      \n"," ormalization)                                                   \n","                                                                 \n"," dropout_1 (Dropout)         (None, 2, 2, 512)         0         \n","                                                                 \n"," conv2d_1 (Conv2D)           (None, 2, 2, 128)         589952    \n","                                                                 \n"," batch_normalization_1 (Batc  (None, 2, 2, 128)        512       \n"," hNormalization)                                                 \n","                                                                 \n"," dropout_2 (Dropout)         (None, 2, 2, 128)         0         \n","                                                                 \n"," conv2d_2 (Conv2D)           (None, 2, 2, 384)         442752    \n","                                                                 \n"," batch_normalization_2 (Batc  (None, 2, 2, 384)        1536      \n"," hNormalization)                                                 \n","                                                                 \n"," dropout_3 (Dropout)         (None, 2, 2, 384)         0         \n","                                                                 \n"," conv2d_3 (Conv2D)           (None, 2, 2, 384)         1327488   \n","                                                                 \n"," batch_normalization_3 (Batc  (None, 2, 2, 384)        1536      \n"," hNormalization)                                                 \n","                                                                 \n"," dropout_4 (Dropout)         (None, 2, 2, 384)         0         \n","                                                                 \n"," conv2d_4 (Conv2D)           (None, 2, 2, 500)         1728500   \n","                                                                 \n"," batch_normalization_4 (Batc  (None, 2, 2, 500)        2000      \n"," hNormalization)                                                 \n","                                                                 \n"," max_pooling2d (MaxPooling2D  (None, 1, 1, 500)        0         \n"," )                                                               \n","                                                                 \n"," flatten (Flatten)           (None, 500)               0         \n","                                                                 \n"," dense (Dense)               (None, 2048)              1026048   \n","                                                                 \n"," dropout_5 (Dropout)         (None, 2048)              0         \n","                                                                 \n"," dense_1 (Dense)             (None, 2048)              4196352   \n","                                                                 \n"," dropout_6 (Dropout)         (None, 2048)              0         \n","                                                                 \n"," dense_2 (Dense)             (None, 2048)              4196352   \n","                                                                 \n"," dropout_7 (Dropout)         (None, 2048)              0         \n","                                                                 \n"," dense_3 (Dense)             (None, 1)                 2049      \n","                                                                 \n","=================================================================\n","Total params: 30,591,621\n","Trainable params: 30,587,805\n","Non-trainable params: 3,816\n","_________________________________________________________________\n"]}]},{"cell_type":"code","source":["model.compile(optimizer=Adam(adam),\n","           
…
